output/280proteome-test-1.pth (torch, 90351 bytes, 6 tensors)

rnn.weight_ih_l0 f4 [128, 21]
0.08244296 0.011462311 -0.13016249 0.04054474 -0.087131396 0.005420086 -0.07894455 -0.060522486
-0.06722853 -0.042916417 -0.09142136 0.049513873 0.03738859 0.06321066 -0.010948888 -0.084244885
-0.03516836 -0.030223168 0.032970954 0.038120877 -0.058744054 -0.06639751 0.18262692 -0.02988866
-0.02577076 0.0460337 0.13056041 0.093168415 0.10250557 0.11476213 -0.034102757 0.16930333
-0.01712317 0.18928808 0.09748701 0.07771953 0.08676538 0.1575227 0.05559913 0.08388138
0.12807587 -0.04965613 0.167209 -0.09468467 -0.20541145 -0.118164495 -0.24957564 -0.19548768
-0.26029912 -0.12444306 -0.17777388 -0.18944904 -0.18490085 -0.11455278 -0.15271991 -0.14182267
-0.16464572 -0.10488069 -0.20590422 0.071804665 -0.14503853 -0.1815245 -0.23242213 0.024964867
0.117879845 0.11083085 -0.04168336 0.049931433 0.024000712 0.00047802838 0.11874095 0.022156114
-0.008985929 -0.106475115 0.09827264 0.16007303 0.106520504 0.15290555 -0.018814776 -0.011431665
-0.07317336 0.08222167 -0.06098928 0.008664088 -0.028980723 0.068893865 0.11562577 -0.007133423
0.047098957 0.053004477 -0.063006565 -0.033834346 -0.04098277 -0.006959333 -0.06468263 -0.04363095
-0.10510241 0.012629585 -0.08021075 0.066182844 0.11752195 -0.043453664 -0.016624441 -0.09244008
0.11601913 -0.024135282 -0.21095984 -0.16721687 -0.18132077 -0.063664995 -0.24178408 -0.1061245
-0.07928246 -0.13680744 -0.2396908 -0.0018286193 -0.10633486 -0.108668886 -0.18915008 -0.12868242
-0.14043432 -0.16701084 0.040285923 -0.12959656 -0.1443665 -0.07721119 0.1273327 -0.09744539
-0.11229775 -0.10279956 -0.19046576 -0.19096628 -0.1956209 -0.19848105 -0.18605281 -0.18869841
-0.20962851 -0.20059024 -0.20309871 -0.10114304 -0.15462771 -0.20325631 -0.22252221 0.01181151
-0.1474738 -0.09480523 -0.1649422 0.040732983 0.11912895 0.0852493 0.13759561 0.13269398
0.13403602 0.19179651 0.14854309 0.17146762 0.14725086 0.20699078 0.06412673 0.21267298
0.13709821 0.18693067 0.18951076 0.15320636 -0.061243534 0.048982076 0.05624621 0.14478716
-0.047185924 -0.058807623 -0.018030735 0.08087615 0.048507176 -0.03553381 0.07024791 0.13811114
0.09058916 -0.06646095 0.024334345 -0.05436477 0.10151881 -0.027505146 0.053690955 -0.018101977
0.048652686 -0.028210614 -0.009815442 -0.05364831 0.032132898 0.066084825 -0.14479233 -0.20619458
-0.11996734 -0.22914949 -0.14716959 -0.19016102 -0.0898843 -0.21945557 -0.1367968 -0.06500526
-0.18975061 -0.18216571 -0.16993524 -0.15479414 -0.2006604 -0.11658943 -0.063190624 -0.24170324
-0.08419638 -0.15930812 -0.07230546 -0.017706623 0.06970682 -0.065701745 0.0025282553 0.008329105
0.037763976 -0.08545737 -0.025700727 -0.0894189 0.0005230757 0.004825237 -0.14034384 -0.030693734
0.034722373 0.037114497 -0.027926493 -0.073489785 -0.077711485 0.08777057 0.024259262 0.050028447
0.091455504 0.039160404 -0.013527261 0.10402728 0.010195284 0.023634603 0.10133402 0.040821098
0.058150012 0.058580354 0.12110056 0.06832556 0.12393635 0.004288103 0.10484149 -0.0037010326
-0.042826656 0.13476852 0.08368823 0.091917954 0.11763844 -0.17165396 -0.102898255 -0.17708825
00000000: dbd7 a83d 6bcc 3b3c 5149 05be 3e12 263d
00000010: f271 b2bd fa9a b13b aead a1bd 6de6 77bd
00000020: 1daf 89bd 20c9 2fbd 1f3b bbbd 0fcf 4a3d
00000030: c724 193d 9774 813d f762 33bc 9588 acbd
00000040: b30c 10bd 9496 f7bc 8d0c 073d a324 1c3d
00000050: 9b9d 70bd 6bfb 87bd 8d02 3b3e 10d9 f4bc
00000060: 331d d3bc d58d 3c3d a1b1 053e 15cf be3d
00000070: 71ee d13d 6808 eb3d 55af 0bbd da5d 2d3e
00000080: e445 8cbc bcd4 413e 45a7 c73d 6b2b 9f3d
00000090: 0cb2 b13d a14d 213e eabb 633d 00ca ab3d
000000a0: 5226 033e 3a64 4bbd d638 2b3e 09ea c1bd
000000b0: 6157 52be 3a00 f2bd c290 7fbe ec2d 48be
000000c0: ed45 85be 01dc febd 5b0a 36be eefe 41be
000000d0: a656 3dbe a69a eabd 9c62 1cbe f639 11be
000000e0: e398 28be b0cb d6bd 8ed8 52be 530e 933d
000000f0: fb84 14be 8fe1 39be 1100 6ebe 1f83 cc3c
00000100: fd6a f13d 49fb e23d 2cbc 2abd e784 4c3d
00000110: 249d c43c e29f fa39 752e f33d bd80 b53c
00000120: b839 13bc a00f dabd 2a43 c93d 2fea 233e
00000130: 6c27 da3d 4693 1c3e 7221 9abc e14b 3bbc
00000140: eadb 95bd d663 a83d e5cf 79bd d2f3 0d3c
00000150: fb68 edbc 3a18 8d3d 34cd ec3d 7dbf e9bb
00000160: d6ea 403d 391b 593d 9609 81bd e295 0abd
00000170: 8ddd 27bd 1e0b e4bb 5478 84bd 5eb6 32bd
00000180: ef3f d7bd 52ec 4e3c 8945 a4bd df8a 873d
00000190: 59af f03d 78fc 31bd fb2f 88bc 3a51 bdbd
000001a0: 709b ed3d 5bb7 c5bc db05 58be e63a 2bbe
000001b0: 27ac 39be cb62 82bd 3f96 77be cd57 d9bd
000001c0: d85e a2bd 4017 0cbe 8171 75be 48ae efba
000001d0: 17c6 d9bd cb8d debd 8fb0 41be 53c5 03be
000001e0: 04ce 0fbe e404 2bbe da02 253d f6b4 04be
000001f0: d0d4 13be e620 9ebd 8163 023e 7391 c7bd
00000200: 5dfc e5bd 9388 d2bd 7509 43be aa8c 43be
00000210: d850 48be 9e3e 4bbe a184 3ebe 283a 41be
00000220: dba8 56be 8767 4dbe 1cf9 4fbe 1524 cfbd
00000230: ba56 1ebe 6c22 50be dddc 63be 1085 413c
00000240: 5f03 17be 3f29 c2bd 9ce6 28be a1d7 263d
00000250: e1f9 f33d 2f97 ae3d dde5 0c3e eee0 073e
00000260: bd40 093e 4e66 443e ae1b 183e 3595 2f3e
00000270: eec8 163e 64f5 533e e054 833d f2c6 593e
00000280: 7963 0c3e c16a 3f3e 1c0f 423e 21e2 1c3e
00000290: 80da 7abd 6ea1 483d 6d62 663d 1643 143e
000002a0: 0746 41bd 43e0 70bd 31b5 93bc 65a2 a53d
000002b0: 76af 463d e68b 11bd 23de 8f3d 026d 0d3e
000002c0: cf86 b93d ae1c 88bd d258 c73c 98ad 5ebd
000002d0: 18e9 cf3d 7952 e1bc 0ceb 5b3d 994a 94bc
000002e0: 0a48 473d f219 e7bc f3d0 20bc 55be 5bbd
000002f0: c99d 033d 7b57 873d 7144 14be ac24 53be
00000300: 70b1 f5bd 2aa6 6abe a0b3 16be 92b9 42be
00000310: 4315 b8bd f6b8 60be 7614 0cbe 7a21 85bd
00000320: fc4d 42be a689 3abe 8103 2ebe 5b82 1ebe
00000330: eb79 4dbe 70c6 eebd 166a 81bd 0e81 77be
00000340: 276f acbd ab21 23be e314 94bd 7b0d 91bc
00000350: 73c2 8e3d a38e 86bd 16b1 253b cc76 083c
00000360: 66ae 1a3d 4604 afbd 558a d2bc 4221 b7bd
00000370: 041f 093a 061d 9e3b 4cb6 0fbe 6d71 fbbc
00000380: 0c39 0e3d 5f05 183d 1ac6 e4bc d081 96bd
00000390: 3327 9fbd 0ec1 b33d 5cbb c63c a1ea 4c3d
000003a0: 064d bb3d a966 203d 72a1 5dbc 410c d53d
000003b0: 1f0a 273c 5b9d c13c 3688 cf3d 0634 273d
000003c0: b52e 6e3d f4f1 6f3d 9203 f83d 45ee 8b3d
000003d0: 57d2 fd3d 3783 8c3b 23b7 d63d 068d 72bb
000003e0: 016b 2fbd c200 0a3e bc64 ab3d 7b3f bc3d
000003f0: 6cec f03d 0ec6 2fbe 52bc d2bd 9f56 35be

rnn.weight_hh_l0 f4 [128, 128]
0.08224684 0.060662564 0.09279497 0.025207218 -0.013742137 -0.02295716 0.0062583396 -0.04862415
-0.045784786 -0.03658034 0.0004918953 0.015356058 0.036871415 -0.033872828 -0.06273339 0.053537443
-0.039804503 0.029012477 0.010531115 0.09475972 0.079634756 -0.05608094 0.023593035 -0.00010637242
0.024293214 -0.085708275 -0.043179408 0.009223578 0.099031895 0.04331782 -0.07461412 0.030413516
0.041615397 0.04254265 -0.061660506 0.0034797424 0.045585524 -0.030236252 0.068547696 0.074309796
-0.032621484 0.06791937 0.023075137 -0.08574924 -0.00017370998 0.0614813 0.023571888 -0.05506637
0.052090686 -0.005036793 0.05447856 0.0012456806 0.020988792 -0.0103848 -0.0049654655 -0.03936061
-0.075983964 -0.053111687 0.0945799 0.019396802 -0.05719774 -0.050487954 -0.0120793665 -0.0078162365
-0.06336436 -0.03614858 0.035437163 -0.066623054 -0.09472509 -0.037425954 0.016857496 0.0059114504
-0.011424396 -0.10001493 -0.087396584 -0.0045349468 0.033034276 0.061575726 0.061839312 0.031841613
0.029543044 0.026137723 0.030972775 0.03470101 -0.05431688 -0.074065976 0.024472041 -0.03440466
-0.014937838 0.02369749 0.062136963 0.05970933 -0.06091529 0.04368021 0.027359733 -0.0240391
-0.08861445 -0.009503898 -0.0016380767 0.049182907 0.08169292 -0.07613037 -0.08723362 -0.039152313
-0.0072448635 -0.085662924 -0.062797256 0.021947213 0.07311137 0.008046567 -0.06556751 -0.03277654
0.08518964 -0.0051934775 -0.010276663 -0.023498641 -0.019810831 -0.10126048 -0.021018045 -0.08925177
-0.048953265 -0.08431632 -0.007556727 -0.018471092 0.03218612 -0.08001903 -0.05623631 0.062031753
-0.06911252 0.041195534 0.0615203 -0.023436492 -0.09212856 -0.026513342 0.025282148 0.072243534
0.020420913 0.07494063 0.028899109 -0.056820408 0.052913293 0.0142332185 0.025178695 -0.09276293
0.022076061 -0.070035525 0.057069283 0.009213686 0.006137838 0.057713225 -0.03087537 -0.02704816
0.020363407 -0.0145991715 -0.09841447 -0.0561899 0.04746904 -0.025562165 0.016261458 -0.037084248
-0.024498291 0.09784024 0.029946707 0.02348562 -0.05390833 0.089223914 -0.08726003 0.023320831
-0.023047008 -0.081752986 0.0014123451 0.06893835 0.08413775 0.023229966 0.08598541 0.007784524
0.02846296 -0.0027657915 -0.029290682 -0.042949367 0.032422848 -0.027518727 0.084019676 0.051224146
0.097932875 -0.0011466469 0.03705223 0.03176282 -0.0016086332 -0.03717339 -0.09341024 -0.07511828
0.069664635 -0.04038633 0.015540038 0.06633256 0.075963095 -0.042361155 -0.074118175 0.0547705
0.075434364 -0.033585627 -0.026738623 -0.06581456 -0.036362655 0.031057185 0.05035982 0.071493015
-0.05695762 -0.05246193 -0.09605889 0.021432973 -0.0122487955 -0.071028665 -0.05303123 -0.07993454
-0.05286256 0.035767697 -0.074184775 0.061444595 -0.015126821 0.017273214 0.048950575 -0.031069517
-0.009383253 -0.085840136 -0.013490707 0.0369032 -0.038217958 -0.011635937 -0.076642774 0.017382963
0.08762156 0.08986975 0.054983016 0.07706571 -0.073532514 -0.05004179 0.051057268 0.001560673
0.039063286 0.07108787 -0.024330145 0.033710416 0.0564124 0.023791607 0.010890515 -0.0470344
-0.064185895 0.04447388 0.042572036 0.0118670175 -0.074147485 -0.08025549 0.053883396 -0.05633021
00000000: 0871 a83d 4f79 783d 4a0b be3d 5e7f ce3c
00000010: b326 61bc a710 bcbc c212 cd3b 1e2a 47bd
00000020: d488 3bbd 44d5 15bd 89f2 003a fa97 7b3c
00000030: 7b06 173d 3cbe 0abd 5d7a 80bd 144a 5b3d
00000040: 0c0a 23bd 93ab ed3c b38a 2c3c 6211 c23d
00000050: 8c17 a33d 21b5 65bd 2e46 c13c 4214 dfb8
00000060: 9002 c73c d287 afbd e4dc 30bd 7d1e 173c
00000070: 3cd1 ca3d 076e 313d 4acf 98bd c425 f93c
00000080: e874 2a3d 3441 2e3d ba8f 7cbd 640c 643b
00000090: e3b7 3a3d 04b2 f7bc bc62 8c3d bc2f 983d
000000a0: 1b9e 05bd 5019 8b3d 1208 bd3c 4c9d afbd
000000b0: eb25 36b9 d1d3 7b3d d519 c13c 468d 61bd
000000c0: 0b5d 553d af0b a5bb e924 5f3d 1b46 a33a
000000d0: b0f0 ab3c 0225 2abc 58b5 a2bb 9738 21bd
000000e0: 7b9d 9bbd a48b 59bd 1bb3 c13d 0be6 9e3c
000000f0: 2d48 6abd 75cc 4ebd 89e8 45bc ac0f 00bc
00000100: 2cc5 81bd 8910 14bd 8f26 113d ab71 88bd
00000110: 3aff c1bd f54b 19bd bb18 8a3c d7b4 c13b
00000120: 642d 3bbc a1d4 ccbd fbfc b2bd e499 94bb
00000130: f34e 073d d436 7c3d 384b 7d3d 5a6c 023d
00000140: 4104 f23c c71e d63c 9eba fd3c a522 0e3d
00000150: 607b 5ebd e7af 97bd 9779 c83c e7eb 0cbd
00000160: d5bd 74bc 3d21 c23c 5483 7e3d c591 743d
00000170: 5082 79bd 05ea 323d 8521 e03c a6ed c4bc
00000180: 7e7b b5bd 3db6 1bbc bcb4 d6ba 0474 493d
00000190: 9e4e a73d 3dea 9bbd 8aa7 b2bd 2d5e 20bd
000001a0: 5266 edbb 0b70 afbd d99b 80bd a4ca b33c
000001b0: 6abb 953d c0d5 033c 4248 86bd b140 06bd
000001c0: e877 ae3d 0c2e aabb 735f 28bc 3980 c0bc
000001d0: 534a a2bc a861 cfbd 092e acbc a2c9 b6bd
000001e0: 3883 48bd 09ae acbd 6c9e f7bb b050 97bc
000001f0: 98d5 033d 04e1 a3bd 0c58 66bd 0215 7e3d
00000200: dd8a 8dbd a6bc 283d b6fc 7b3d e3fd bfbc
00000210: e6ad bcbd 8232 d9bc 821c cf3c 6bf4 933d
00000220: c249 a73c 797a 993d d3bd ec3c 84bc 68bd
00000230: 9cbb 583d 7232 693c 8d43 ce3c 7efa bdbd
00000240: dbd8 b43c c96e 8fbd 7bc1 693d 00f5 163c
00000250: eb1f c93b b464 6c3d 58ee fcbc 1a94 ddbc
00000260: 29d1 a63c 5d31 6fbc 878d c9bd 6127 66bd
00000270: e56e 423d bf67 d1bc c036 853c a7e5 17bd
00000280: a4b0 c8bc 7760 c83d cc52 f53c ea64 c03c
00000290: fbce 5cbd 07bb b63d 63b5 b2bd 540b bf3c
000002a0: 14cd bcbc 1c6e a7bd 701e b93a 8d2f 8d3d
000002b0: 6a50 ac3d c54c be3c 1e19 b03d 5215 ff3b
000002c0: 272b e93c 4842 35bb 03f3 efbc adeb 2fbd
000002d0: d2cd 043d f46e e1bc 8212 ac3d 69d0 513d
000002e0: 0891 c83d 164b 96ba 14c4 173d bb19 023d
000002f0: c6d8 d2ba 2043 18bd de4d bfbd 9dd7 99bd
00000300: 55ac 8e3d 236c 25bd a59b 7e3c 5dd9 873d
00000310: 8a92 9b3d e482 2dbd 45cb 97bd 0857 603d
00000320: 557d 9a3d 1591 09bd f50a dbbc c9c9 86bd
00000330: 02f1 14bd a36b fe3c 1946 4e3d ee6a 923d
00000340: 654c 69bd 52e2 56bd 86ba c4bd 3494 af3c
00000350: 2caf 48bc 7a77 91bd 4637 59bd b8b4 a3bd
00000360: 6986 58bd 2681 123d 30ee 97bd 54ad 7b3d
00000370: 7cd6 77bc 8e80 8d3c 6680 483d 8085 febc
00000380: 37bc 19bc f4cc afbd 2008 5dbc cf27 173d
00000390: 6f8a 1cbd a8a4 3ebc e3f6 9cbd b766 8e3c
000003a0: ef72 b33d a20d b83d df35 613d a1d4 9d3d
000003b0: 3798 96bd 9ff8 4cbd 6d21 513d 7f8f cc3a
000003c0: d300 203d 8496 913d 0350 c7bc ef13 0a3d
000003d0: b010 673d 9ee6 c23c 216e 323c 25a7 40bd
000003e0: e573 83bd 3e2a 363d 0460 2e3d e16d 423c
000003f0: a3da 97bd fe5c a4bd d6b4 5c3d 82ba 66bd

rnn.bias_ih_l0 f4 [128]
0.08252763 0.04268859 -0.034083147 0.048536666 0.10670602 -0.07558864 -0.040621128 -0.04359201
-0.10380076 0.100782976 -0.036178 -0.021174438 0.06064577 -0.0075846203 -0.071642935 0.10421351
0.0937547 -0.06090672 -0.05039446 -0.03372111 0.10434384 0.08956899 -0.002135094 0.09029294
-0.110827595 0.004942974 0.0565666 0.08140049 0.10128669 0.088317014 -0.04719629 -0.03504519
-0.07093797 -0.032824483 -0.061956305 -0.026464567 -0.13507992 -0.09514292 0.09431389 0.048140053
-0.013749074 0.0753141 -0.016906938 -0.04018734 0.0491904 0.11837618 -0.04169875 0.008770457
0.05609151 -0.05449227 0.035148162 0.11656389 -0.009777464 0.06635697 -3.993338e-05 -0.06008228
-0.095976196 0.023490442 0.045239855 -0.07923911 -0.005214295 0.05273755 0.100977056 -0.00032648144
-0.044734 0.11146419 0.014359587 -0.01705568 -0.04279484 -0.06677235 -0.01229839 0.010181419
-0.10933071 -0.11765657 -0.09892327 0.08223339 0.115500584 -0.09070489 0.075896405 -0.056554947
0.085439876 0.048518054 -0.03700941 0.020592822 0.0019023254 -0.09291298 0.060134545 -0.11651054
0.095449135 -0.06328972 0.06562942 -0.08284982 -0.01582377 -0.10046124 0.021440202 0.12669922
-0.030569185 0.008913756 0.005362661 0.051929973 0.020780561 -0.091153726 -0.0438086 -0.10613446
0.023158468 0.05774902 0.068335496 -0.051616743 0.07364248 -0.014976736 0.09260418 0.0755874
0.04959298 -0.031941243 -0.013070279 0.049614538 -0.09973513 -0.12555249 0.09634427 -0.06941702
-0.026858745 -0.09097147 0.011096076 0.096917704 0.018432854 0.058688752 -0.039602384 -0.065415084
00000000: 3f04 a93d 3bda 2e3d c59a 0bbd 62ce 463d
00000010: b088 da3d 38ce 9abd 5762 26bd 898d 32bd
00000020: 7e95 d4bd 4e67 ce3d 622f 14bd 0476 adbc
00000030: b367 783d 6888 f8bb 88b9 92bd e56d d53d
00000040: 7702 c03d 5379 79bd 6c6a 4ebd 261f 0abd
00000050: 39b2 d53d f26f b73d efec 0bbb 81eb b83d
00000060: 94f9 e2bd acf8 a13b 61b2 673d 4db5 a63d
00000070: 656f cf3d 8ddf b43d e650 41bd 8c8b 0fbd
00000080: ed47 91bd f772 06bd e5c5 7dbd 38cc d8bc
00000090: 6452 0abe 4bda c2bd a427 c13d 812e 453d
000000a0: cc43 61bc 473e 9a3d 6b80 8abc 7b9b 24bd
000000b0: df7b 493d 366f f23d 4fcc 2abd f6b1 0f3c
000000c0: 36c0 653d 4933 5fbd 85f7 0f3d 0cb9 ee3d
000000d0: a831 20bc 2ae6 873d 247e 27b8 d618 76bd
000000e0: 2b8f c4bd 076f c03c 6d4d 393d 1d48 a2bd
000000f0: addc aabb 5403 583d 0fcd ce3d 992b abb9
00000100: 003b 37bd 5647 e43d 7944 6b3c 5ab8 8bbc
00000110: a449 2fbd f1bf 88bd 307f 49bc f7cf 263c
00000120: c7e8 dfbd eef5 f0bd 4998 cabd fb69 a83d
00000130: 928b ec3d 7cc3 b9bd 936f 9b3d 29a6 67bd
00000140: 1afb ae3d deba 463d 2e97 17bd 47b2 a83c
00000150: 7357 f93a 2949 bebd a44f 763d 149d eebd
00000160: d67a c33d 0a9e 81bd b868 863d 2bad a9bd
00000170: daa0 81bc 9fbe cdbd 5da3 af3c 71bd 013e
00000180: 3a6c fabc 010b 123c 43b9 af3b 86b4 543d
00000190: ff3b aa3c ceae babd a670 33bd 065d d9bd
000001a0: d4b6 bd3c 3d8a 6c3d 7bf3 8b3d 146c 53bd
000001b0: ded1 963d fc60 75bc 43a7 bd3d 91cd 9a3d
000001c0: 0222 4b3d d2d4 02bd b924 56bc 9d38 4b3d
000001d0: ef41 ccbd d590 00be 2550 c53d 832a 8ebd
000001e0: df06 dcbc 404f babd 51cc 353c ca7c c63d
000001f0: 7f00 973c 9e63 703d 1c36 22bd 58f8 85bd

rnn.bias_hh_l0 f4 [128]
0.054279663 -0.11251612 0.10596831 -0.036880173 0.043871652 0.005101443 0.048692748 -0.105975844
0.04783061 0.074253865 -0.10648296 0.0015881838 0.119019546 -0.082312554 -0.092337966 0.07089457
0.084543146 -0.087376624 0.04545479 0.01901801 0.025876932 0.02535691 0.06466197 -0.042733304
-0.008642215 0.057697207 0.11150802 0.10887488 0.049143594 -0.026939452 0.071935534 -0.04995673
-0.06519768 0.02650442 -0.045376696 0.04211535 -0.033441678 -0.006757396 0.058813084 -0.039151277
-0.064289026 -0.063386455 -0.04039335 -0.09457201 0.031558502 -0.0428265 -0.08409374 0.017892934
-0.0080005955 -0.05579591 0.1120444 0.11840305 0.016410261 0.07238084 -0.12298015 0.03515164
0.01082476 -0.1010348 0.023907559 -0.04705738 -0.0122281555 0.040082466 -0.064518504 -0.004225733
-0.04471478 0.07553677 0.075467765 -0.07656979 -0.0652394 -0.007927144 -0.025871364 0.019170268
-0.08475496 -0.0060509946 -0.087424085 0.013962101 0.032101214 -0.0767677 -0.002611575 -0.05648587
0.05626785 0.10215682 0.06784014 0.07171911 -0.03204818 0.009598966 -0.004203364 -0.037433285
0.0919317 0.038104113 -0.015373077 -0.053971693 -0.0588402 -0.119716644 0.103706695 0.035102163
-0.04266519 0.0875553 -0.029698402 -0.07701723 0.02488443 -0.08585078 -0.09862701 -0.045956384
0.04596296 -0.07401754 0.1043556 -0.0044290093 -0.006100377 -0.09653876 0.012694537 0.069852285
-0.0449153 -0.09711531 0.05117691 0.0982545 -0.0048248353 -0.082505316 0.059032373 0.035141695
-0.089349784 -0.03381648 -0.088803515 0.037301794 -0.042130508 0.03054061 0.068892635 -0.06881303
00000000: 5a54 5e3d da6e e6bd ea05 d93d aa0f 17bd
00000010: c3b2 333d 012a a73b 0c72 473d dd09 d9bd
00000020: 08ea 433d 6912 983d bd13 dabd 9b2a d03a
00000030: 85c0 f33d 7c93 a8bd b01b bdbd 2c31 913d
00000040: f524 ad3d 84f2 b2bd cd2e 3a3d a8cb 9b3c
00000050: dcfb d33c 4bb9 cf3c 7f6d 843d 1e09 2fbd
00000060: 1498 0dbc e853 6c3d 515e e43d cbf9 de3d
00000070: cb4a 493d 20b0 dcbc f052 933d 6e9f 4cbd
00000080: 5c86 85bd cc1f d93c eadc 39bd 2581 2c3d
00000090: 24fa 08bd 256d ddbb fde5 703d 175d 20bd
000000a0: f7a9 83bd c2d0 81bd 7f73 25bd f8ae c1bd
000000b0: 7d43 013d d76a 2fbd 5739 acbd 3494 923c
000000c0: ee14 03bc 418a 64bd 8977 e53d 4c7d f23d
000000d0: d06e 863c 683c 943d 04dd fbbd 2bfb 0f3d
000000e0: 565a 313c 55eb cebd c9d9 c33c 3dbf 40bd
000000f0: 9a58 48bc 832d 243d 4722 84bd 0578 8abb
00000100: d826 37bd 06b3 9a3d d88e 9a3d 9fd0 9cbd
00000110: 3c9c 85bd dae0 01bc 2ff0 d3bc f70a 9d3c
00000120: 0294 adbd 6c47 c6bb 660b b3bd 4cc1 643c
00000130: 907c 033d 6238 9dbd f526 2bbb ba5d 67bd
00000140: 1e79 663d 9837 d13d c5ef 8a3d 78e1 923d
00000150: f444 03bd fb44 1d3c 5fbc 89bb a553 19bd
00000160: b046 bc3d 0f13 1c3d 5cdf 7bbc 6c11 5dbd
00000170: 6c02 71bd 002e f5bd 2d64 d43d 49c7 0f3d
00000180: b2c1 2ebd 3150 b33d 104a f3bc 36bb 9dbd
00000190: 6fda cb3c 89d2 afbd f5fc c9bd c33c 3cbd
000001a0: a843 3c3d 8296 97bd 64b8 d53d 3921 91bb
000001b0: ace5 c7bb 1db6 c5bd bffc 4f3c b70e 8f3d
000001c0: 1bf9 37bd 64e4 c6bd e19e 513d a839 c93d
000001d0: a719 9ebb 8cf8 a8bd eecb 713d bdf0 0f3d
000001e0: 05fd b6bd 2683 0abd 9ede b5bd c4c9 183d
000001f0: 0a91 2cbd 4d30 fa3c 9517 8d3d d9ed 8cbd

fc.weight f4 [21, 128]
0.08897254 -0.076555304 0.034316238 0.041898955 0.006382464 -0.0045972676 0.06465188 -0.025386417
-0.07237231 0.061724875 -0.10988017 -0.031243453 0.11349489 -0.057419892 -0.11528542 0.031736497
-0.091873705 -0.12009198 -0.041677788 -0.034512002 0.09455558 -0.035761144 0.0027861001 0.004002532
-0.11008269 0.04726357 0.012245646 0.0065795877 0.040465023 -0.044778917 0.10299079 -0.088798225
-0.02814979 0.0029790432 -0.081533775 -0.0042384425 -0.090287834 0.061336327 0.07763636 0.07948912
-0.018289575 0.06308634 0.06841495 -0.030518563 0.08673103 0.00072206784 -0.050233908 0.008550326
0.015516749 0.07682456 0.10093334 0.10175507 -0.0983448 0.04705353 -0.046028305 -0.05700055
-0.11873858 0.029440923 -0.065528825 0.017108297 -0.03262199 0.08314945 -0.020421976 -0.045689996
-0.08212453 0.037948728 -0.031019403 -0.041799955 -0.043582905 -0.06776231 -0.023635522 -0.06086248
-0.0605067 -0.028511204 0.026591467 -0.06638713 0.058792338 -0.048042227 0.048128944 -0.046593938
0.11393618 -0.0011303602 0.032774996 -0.09287644 -0.06657845 -0.063516065 0.0523847 -0.07106313
0.05877986 -0.016245222 0.09693491 0.020524569 0.08896907 -0.08622108 0.09869496 0.06234249
-0.0025112308 0.057526987 0.009138507 -0.049105495 0.08520434 0.04733518 -0.09771237 -0.10846335
-0.028047428 -0.06887764 0.11405238 0.09852979 0.092159025 -0.10529454 0.070166364 0.04932326
0.044376597 -0.05180072 0.049420033 0.06650905 -0.04501793 -0.054234225 0.058639843 -0.11810501
-0.09204462 -0.06420455 -0.046893366 0.07047277 0.08118675 0.08610436 0.053009626 -0.10983031
-0.037674766 0.11535824 -0.081450574 -0.08620334 -0.020548718 0.07226474 -0.035768308 0.032771695
0.095766656 -0.025399169 0.031391192 -0.06329863 -0.05305497 0.0027141238 -0.048053093 -0.110914156
-0.06685829 -0.0038359847 -0.048880626 -0.00806411 0.025790002 -0.03578027 0.062861465 -0.025002215
0.024739964 -0.10768694 -0.10608411 -0.010890142 -0.08538045 -0.0011534032 -0.10530155 0.04264163
-0.023019614 0.0039818087 0.07345586 -0.030151127 0.048699677 0.040277444 -0.07452993 -0.10395086
0.06978098 0.0699563 0.077403836 -0.0077845943 -0.10627798 -0.051827278 -0.05287748 -0.079720005
0.020535257 0.074412026 -0.10887117 -0.044603426 -0.035977803 0.032844804 0.066801056 0.050327852
-0.040444788 -0.037450407 0.015203518 0.046762094 0.0015939204 0.030370073 -0.016508592 -0.0094718365
0.014465269 0.050551474 -0.11393707 -0.0075655347 0.11397407 0.058657974 0.060877 -0.0006449121
0.10233306 0.035826474 0.029720893 -0.04300994 0.04477774 0.009098961 -0.0030418967 -0.039495148
0.020435106 -0.025137655 -0.040020935 -0.0577092 0.06444662 0.05494465 0.077432394 -0.008814897
-0.10077624 0.066782564 -0.0056674443 -0.06438027 -0.01913953 -0.04442249 0.029361015 -0.08601248
0.074610114 0.037349034 0.021705257 -0.039208714 -0.068662256 -0.013593821 0.09233304 0.12132467
0.107848726 -0.08873551 -0.08398134 -0.0035889298 0.035315994 -0.061356857 -0.017806163 -0.045087207
-0.044599943 0.05720519 -0.105500415 -0.119503394 0.020448592 0.0044888593 0.050350048 0.053357773
0.08604474 -0.023190716 0.11083775 0.01879032 0.01678402 0.022128955 -0.03649253 0.11336278
00000000: 3c37 b63d 07c9 9cbd 2f8f 0c3d 3d9e 2b3d
00000010: fd23 d13b ada4 96bb 3468 843d 2df7 cfbc
00000020: ef37 94bd 39d3 7c3d db08 e1bd 45f2 ffbc
00000030: 0270 e83d 1f31 6bbd c31a ecbd 21fe 013d
00000040: 4828 bcbd c9f2 f5bd 54b6 2abd 755c 0dbd
00000050: 5ba6 c13d 477a 12bd 0197 363b ac27 833b
00000060: 0973 e1bd 7297 413d f6a1 483c 9599 d73b
00000070: a7be 253d 196a 37bd d6ec d23d d8db b5bd
00000080: 639a e6bc 0d3c 433b 2efb a6bd a2e2 8abb
00000090: d4e8 b8bd cd3b 7b3d d0ff 9e3d 31cb a23d
000000a0: 05d4 95bc 6933 813d 231d 8c3d 1102 fabc
000000b0: 0aa0 b13d 2749 3d3a 12c2 4dbd ab16 0c3c
000000c0: f639 7e3c 3256 9d3d 24b6 ce3d f664 d03d
000000d0: 0069 c9bd 34bb 403d 2d88 3cbd 6979 69bd
000000e0: 362d f3bd 172e f13c fa33 86bd b326 8c3c
000000f0: a39e 05bd 424a aa3d fd4b a7bc 6f25 3bbd
00000100: e830 a8bd 2070 1b3d 671c febc 6e36 2bbd
00000110: fd83 32bd f7c6 8abd 489f c1bc f04a 79bd
00000120: e0d5 77bd 5490 e9bc 59d6 d93c faf5 87bd
00000130: 3cd0 703d edc7 44bd db22 453d 49d9 3ebd
00000140: 5f57 e93d 9828 94ba 133f 063d 0136 bebd
00000150: 485a 88bd b614 82bd 5791 563d 8c89 91bd
00000160: 27c3 703d b314 85bc cf85 c63d 2423 a83c
00000170: 6a35 b63d ad94 b0bd 9520 ca3d d75a 7f3d
00000180: 7693 24bb 6ba1 6b3d adb9 153c d822 49bd
00000190: 9d7f ae3d 89e2 413d 6c1d c8bd 0822 debd
000001a0: b8c3 e5bc b80f 8dbd 4b94 e93d fdc9 c93d
000001b0: dfbd bc3d aaa4 d7bd 62b3 8f3d 3007 4a3d
000001c0: 3cc4 353d fe2c 54bd a96c 4a3d e635 883d
000001d0: b964 38bd b524 5ebd 5530 703d 0ae1 f1bd
000001e0: e481 bcbd ad7d 83bd 4213 40bd 0754 903d
000001f0: 3d45 a63d 7c57 b03d 9f20 593d b7ee e0bd
00000200: db50 1abd f140 ec3d 8fcf a6bd 608b b0bd
00000210: c955 a8bc 89ff 933d ca81 12bd 9d3b 063d
00000220: 4f21 c43d eb11 d0bc 0d94 003d b6a2 81bd
00000230: 2b50 59bd 71df 313b 52d3 44bd f626 e3bd
00000240: 00ed 88bd 2565 7bbb 0d37 48bd 541f 04bc
00000250: 8e45 d33c 558e 12bd 83bd 803d 72d1 ccbc
00000260: 77ab ca3c f88a dcbd a042 d9bd 916c 32bc
00000270: f2db aebd ca2d 97ba 57a8 d7bd fda8 2e3d
00000280: a193 bcbc d579 823b 0770 963d 7fff f6bc
00000290: 5079 473d f6f9 243d 26a3 98bd 30e4 d4bd
000002a0: 55e9 8e3d 4045 8f3d e785 9e3d e915 ffbb
000002b0: 45a8 d9bd d748 54bd 0e96 58bd 3e44 a3bd
000002c0: 8e39 a83c 5565 983d d9f7 debd 15b2 36bd
000002d0: 765d 13bd 4688 063d fece 883d 9424 4e3d
000002e0: 6fa9 25bd 9965 19bd 2d18 793c 9c89 3f3d
000002f0: 18eb d03a a9ca f83c 073d 87bc c32f 1bbc
00000300: bcff 6c3c 100f 4f3d d757 e9bd 4ee8 f7bb
00000310: 3d6b e93d 5843 703d 295a 793d 520f 29ba
00000320: ff93 d13d c8be 123d 3b79 f33c 312b 30bd
00000330: dd68 373d cf13 153c 8f5a 47bb aac5 21bd
00000340: 8667 a73c 7ced cdbc feec 23bd 7b60 6cbd
00000350: 97fc 833d a40d 613d e094 9e3d 5c6c 10bc
00000360: c663 cebd 4cc5 883d f8b5 b9bb ced9 83bd
00000370: 81ca 9cbc 5bf4 35bd 8386 f03c 5027 b0bd
00000380: 30cd 983d 4dfb 183d 39cf b13c 5199 20bd
00000390: cc9e 8cbd 9eb8 5ebc 1b19 bd3d 1279 f83d
000003a0: cbdf dc3d f7ba b5bd 69fe abbd 4034 6bbb
000003b0: 81a7 103d 5451 7bbd 3bde 91bc 5dad 38bd
000003c0: 6eae 36bd fd4f 6a3d 9a10 d8bd 32be f4bd
000003d0: ce83 a73c 4817 933b da3b 4e3d ae8d 5a3d
000003e0: 3a38 b03d 75fa bdbc e7fe e23d 28ee 993c
000003f0: a47e 893c c847 b53c 3179 15bd bf2a e83d

fc.bias f4 [21]
-3.862786e-05 -0.12225847 -0.10986458 -0.010402589 0.028676625 -0.06751365 -0.018539708 -0.007377333
0.033187784 0.066106215 -0.15075982 -0.052610274 -0.005876954 -0.047478758 -0.109443344 -0.009586332
-0.09965418 -0.052751623 0.030100215 -0.035278212 -0.03935397
00000000: 5904 22b8 a662 fabd ae00 e1bd 9f6f 2abc
00000010: 3eeb ea3c 9944 8abd 96e0 97bc 8ebd f1bb
00000020: eaef 073d b262 873d c860 1abe df7d 57bd
00000030: 7793 c0bb 1679 42bd d523 e0bd fe0f 1dbc
00000040: 7e17 ccbd 1612 58bd ba94 f63c e37f 10bd
00000050: a131 21bd
